…
Weights.IMAGENET1K_V1`. You can also use `weights=VGG16_Weights.DEFAULT` to get the most up-to-date weights.
  warnings.warn(msg)

I20260317 20:42:11 sphere.lpips lpips.py:146] loaded pretrained LPIPS loss from /home/cvrt/Desktop/dev/sphere-encoder-basin-lab/workspace/pretrained/lpips/vgg.pth
I20260317 20:42:12 sphere.lpips lpips.py:208] loss weights - lpips: 1.0, convnext: 0.1
I20260317 20:42:12 __main__ train.py:498] ReconstructionLoss(
  (perceptual_loss): PerceptualLoss(
    (lpips): LPIPS(
      (scaling_layer): ScalingLayer()
      (net): vgg16(
        (slice1): Sequential(
          (0): Conv2d(3, 64, kernel_size=(3, 3), stride=(1, 1), padding=(1, 1))
          (1): ReLU(inplace=True)
          (2): Conv2d(64, 64, kernel_size=(3, 3), stride=(1, 1), padding=(1, 1))
          (3): ReLU(inplace=True)
        )
        (slice2): Sequential(
          (4): MaxPool2d(kernel_size=2, stride=2, padding=0, dilation=1, ceil_mode=False)
          (5): Conv2d(64, 128, kernel_size=(3, 3), stride=(1, 1), padding=(1, 1))
          (6): ReLU(inplace=True)
          (7): Conv2d(128, 128, kernel_size=(3, 3), stride=(1, 1), padding=(1, 1))
          (8): ReLU(inplace=True)
        )
        (slice3): Sequential(
          (9): MaxPool2d(kernel_size=2, stride=2, padding=0, dilation=1, ceil_mode=False)
          (10): Conv2d(128, 256, kernel_size=(3, 3), stride=(1, 1), padding=(1, 1))
          (11): ReLU(inplace=True)
          (12): Conv2d(256, 256, kernel_size=(3, 3), stride=(1, 1), padding=(1, 1))
          (13): ReLU(inplace=True)
          (14): Conv2d(256, 256, kernel_size=(3, 3), stride=(1, 1), padding=(1, 1))
          (15): ReLU(inplace=True)
        )
        (slice4): Sequential(
          (16): MaxPool2d(kernel_size=2, stride=2, padding=0, dilation=1, ceil_mode=False)
          (17): Conv2d(256, 512, kernel_size=(3, 3), stride=(1, 1), padding=(1, 1))
          (18): ReLU(inplace=True)
          (19): Conv2d(512, 512, kernel_size=(3, 3), stride=(1, 1), padding=(1, 1))
          (20): ReLU(inplace=True)
          (21): Conv2d(512, 512, kernel_size=(3, 3), stride=(1, 1), padding=(1, 1))
          (22): ReLU(inplace=True)
        )
        (slice5): Sequential(
          (23): MaxPool2d(kernel_size=2, stride=2, padding=0, dilation=1, ceil_mode=False)
          (24): Conv2d(512, 512, kernel_size=(3, 3), stride=(1, 1), padding=(1, 1))
          (25): ReLU(inplace=True)
          (26): Conv2d(512, 512, kernel_size=(3, 3), stride=(1, 1), padding=(1, 1))
          (27): ReLU(inplace=True)
          (28): Conv2d(512, 512, kernel_size=(3, 3), stride=(1, 1), padding=(1, 1))
          (29): ReLU(inplace=True)
        )
      )
      (lin0): NetLinLayer(
        (model): Sequential(
          (0): Dropout(p=0.5, inplace=False)
          (1): Conv2d(64, 1, kernel_size=(1, 1), stride=(1, 1), bias=False)
        )
      )
      (lin1): NetLinLayer(
        (model): Sequential(
          (0): Dropout(p=0.5, inplace=False)
          (1): Conv2d(128, 1, kernel_size=(1, 1), stride=(1, 1), bias=False)
        )
      )
      (lin2): NetLinLayer(
        (model): Sequential(
          (0): Dropout(p=0.5, inplace=False)
          (1): Conv2d(256, 1, kernel_size=(1, 1), stride=(1, 1), bias=False)
        )
      )
      (lin3): NetLinLayer(
        (model): Sequential(
          (0): Dropout(p=0.5, inplace=False)
          (1): Conv2d(512, 1, kernel_size=(1, 1), stride=(1, 1), bias=False)
        )
      )
      (lin4): NetLinLayer(
        (model): Sequential(
          (0): Dropout(p=0.5, inplace=False)
          (1): Conv2d(512, 1, kernel_size=(1, 1), stride=(1, 1), bias=False)
        )
      )
    )
    (convnext): ConvNeXt(
      (features): Sequential(
        (0): Conv2dNormActivation(
          (0): Conv2d(3, 96, kernel_size=(4, 4), stride=(4, 4))
          (1): LayerNorm2d((96,), eps=1e-06, elementwise_affine=True)
        )
        (1): Sequential(
          (0): CNBlock(
            (block): Sequential(
              (0): Conv2d(96, 96, kernel_size=(7, 7), stride=(1, 1), padding=(3, 3), groups=96)
              (1): Permute()
              (2): LayerNorm((96,), eps=1e-06, elementwise_affine=True)
              (3): Linear(in_features=96, out_features=384, bias=True)
              (4): GELU(approximate='none')
              (5): Linear(in_features=384, out_features=96, bias=True)
              (6): Permute()
            )
            (stochastic_depth): StochasticDepth(p=0.0, mode=row)
          )
          (1): CNBlock(
            (block): Sequential(
              (0): Conv2d(96, 96, kernel_size=(7, 7), stride=(1, 1), padding=(3, 3), groups=96)
              (1): Permute()
              (2): LayerNorm((96,), eps=1e-06, elementwise_affine=True)
              (3): Linear(in_features=96, out_features=384, bias=True)
              (4): GELU(approximate='none')
              (5): Linear(in_features=384, out_features=96, bias=True)
              (6): Permute()
            )
            (stochastic_depth): StochasticDepth(p=0.011428571428571429, mode=row)
          )
          (2): CNBlock(
            (block): Sequential(
              (0): Conv2d(96, 96, kernel_size=(7, 7), stride=(1, 1), padding=(3, 3), groups=96)
              (1): Permute()
              (2): LayerNorm((96,), eps=1e-06, elementwise_affine=True)
              (3): Linear(in_features=96, out_features=384, bias=True)
              (4): GELU(approximate='none')
              (5): Linear(in_features=384, out_features=96, bias=True)
              (6): Permute()
            )
            (stochastic_depth): StochasticDepth(p=0.022857142857142857, mode=row)
          )
        )
        (2): Sequential(
          (0): LayerNorm2d((96,), eps=1e-06, elementwise_affine=True)
          (1): Conv2d(96, 192, kernel_size=(2, 2), stride=(2, 2))
        )
        (3): Sequential(
          (0): CNBlock(
            (block): Sequential(
              (0): Conv2d(192, 192, kernel_size=(7, 7), stride=(1, 1), padding=(3, 3), groups=192)
              (1): Permute()
              (2): LayerNorm((192,), eps=1e-06, elementwise_affine=True)
              (3): Linear(in_features=192, out_features=768, bias=True)
              (4): GELU(approximate='none')
              (5): Linear(in_features=768, out_features=192, bias=True)
              (6): Permute()
            )
            (stochastic_depth): StochasticDepth(p=0.03428571428571429, mode=row)
          )
          (1): CNBlock(
            (block): Sequential(
              (0): Conv2d(192, 192, kernel_size=(7, 7), stride=(1, 1), padding=(3, 3), groups=192)
              (1): Permute()
              (2): LayerNorm((192,), eps=1e-06, elementwise_affine=True)
              (3): Linear(in_features=192, out_features=768, bias=True)
              (4): GELU(approximate='none')
              (5): Linear(in_features=768, out_features=192, bias=True)
              (6): Permute()
            )
            (stochastic_depth): StochasticDepth(p=0.045714285714285714, mode=row)
          )
          (2): CNBlock(
            (block): Sequential(
              (0): Conv2d(192, 192, kernel_size=(7, 7), stride=(1, 1), padding=(3, 3), groups=192)
              (1): Permute()
              (2): LayerNorm((192,), eps=1e-06, elementwise_affine=True)
              (3): Linear(in_features=192, out_features=768, bias=True)
              (4): GELU(approximate='none')
              (5): Linear(in_features=768, out_features=192, bias=True)
              (6): Permute()
            )
            (stochastic_depth): StochasticDepth(p=0.05714285714285714, mode=row)
          )
        )
        (4): Sequential(
          (0): LayerNorm2d((192,), eps=1e-06, elementwise_affine=True)
          (1): Conv2d(192, 384, kernel_size=(2, 2), stride=(2, 2))
        )
        (5): Sequential(
          (0): CNBlock(
            (block): Sequential(
              (0): Conv2d(384, 384, kernel_size=(7, 7), stride=(1, 1), padding=(3, 3), groups=384)
              (1): Permute()
              (2): LayerNorm((384,), eps=1e-06, elementwise_affine=True)
              (3): Linear(in_features=384, out_features=1536, bias=True)
              (4): GELU(approximate='none')
              (5): Linear(in_features=1536, out_features=384, bias=True)
              (6): Permute()
            )
            (stochastic_depth): StochasticDepth(p=0.06857142857142857, mode=row)
          )
          (1): CNBlock(
            (block): Sequential(
              (0): Conv2d(384, 384, kernel_size=(7, 7), stride=(1, 1), padding=(3, 3), groups=384)
              (1): Permute()
              (2): LayerNorm((384,), eps=1e-06, elementwise_affine=True)
              (3): Linear(in_features=384, out_features=1536, bias=True)
              (4): GELU(approximate='none')
              (5): Linear(in_features=1536, out_features=384, bias=True)
              (6): Permute()
            )
            (stochastic_depth): StochasticDepth(p=0.08, mode=row)
          )
          (2): CNBlock(
            (block): Sequential(
              (0): Conv2d(384, 384, kernel_size=(7, 7), stride=(1, 1), padding=(3, 3), groups=384)
              (1): Permute()
              (2): LayerNorm((384,), eps=1e-06, elementwise_affine=True)
              (3): Linear(in_features=384, out_features=1536, bias=True)
              (4): GELU(approximate='none')
              (5): Linear(in_features=1536, out_features=384, bias=True)
              (6): Permute()
            )
            (stochastic_depth): StochasticDepth(p=0.09142857142857143, mode=row)
          )
          (3): CNBlock(
            (block): Sequential(
              (0): Conv2d(384, 384, kernel_size=(7, 7), stride=(1, 1), padding=(3, 3), groups=384)
              (1): Permute()
              (2): LayerNorm((384,), eps=1e-06, elementwise_affine=True)
              (3): Linear(in_features=384, out_features=1536, bias=True)
              (4): GELU(approximate='none')
              (5): Linear(in_features=1536, out_features=384, bias=True)
              (6): Permute()
            )
            (stochastic_depth): StochasticDepth(p=0.10285714285714286, mode=row)
          )
          (4): CNBlock(
            (block): Sequential(
              (0): Conv2d(384, 384, kernel_size=(7, 7), stride=(1, 1), padding=(3, 3), groups=384)
              (1): Permute()
              (2): LayerNorm((384,), eps=1e-06, elementwise_affine=True)
              (3): Linear(in_features=384, out_features=1536, bias=True)
              (4): GELU(approximate='none')
              (5): Linear(in_features=1536, out_features=384, bias=True)
              (6): Permute()
            )
            (stochastic_depth): StochasticDepth(p=0.11428571428571428, mode=row)
          )
          (5): CNBlock(
            (block): Sequential(
              (0): Conv2d(384, 384, kernel_size=(7, 7), stride=(1, 1), padding=(3, 3), groups=384)
              (1): Permute()
              (2): LayerNorm((384,), eps=1e-06, elementwise_affine=True)
              (3): Linear(in_features=384, out_features=1536, bias=True)
              (4): GELU(approximate='none')
              (5): Linear(in_features=1536, out_features=384, bias=True)
              (6): Permute()
            )
            (stochastic_depth): StochasticDepth(p=0.12571428571428572, mode=row)
          )
          (6): CNBlock(
            (block): Sequential(
              (0): Conv2d(384, 384, kernel_size=(7, 7), stride=(1, 1), padding=(3, 3), groups=384)
              (1): Permute()
              (2): LayerNorm((384,), eps=1e-06, elementwise_affine=True)
              (3): Linear(in_features=384, out_features=1536, bias=True)
              (4): GELU(approximate='none')
              (5): Linear(in_features=1536, out_features=384, bias=True)
              (6): Permute()
            )
            (stochastic_depth): StochasticDepth(p=0.13714285714285715, mode=row)
          )
          (7): CNBlock(
            (block): Sequential(
              (0): Conv2d(384, 384, kernel_size=(7, 7), stride=(1, 1), padding=(3, 3), groups=384)
              (1): Permute()
              (2): LayerNorm((384,), eps=1e-06, elementwise_affine=True)
              (3): Linear(in_features=384, out_features=1536, bias=True)
              (4): GELU(approximate='none')
              (5): Linear(in_features=1536, out_features=384, bias=True)
              (6): Permute()
            )
            (stochastic_depth): StochasticDepth(p=0.14857142857142858, mode=row)
          )
          (8): CNBlock(
            (block): Sequential(
              (0): Conv2d(384, 384, kernel_size=(7, 7), stride=(1, 1), padding=(3, 3), groups=384)
              (1): Permute()
              (2): LayerNorm((384,), eps=1e-06, elementwise_affine=True)
              (3): Linear(in_features=384, out_features=1536, bias=True)
              (4): GELU(approximate='none')
              (5): Linear(in_features=1536, out_features=384, bias=True)
              (6): Permute()
            )
            (stochastic_depth): StochasticDepth(p=0.16, mode=row)
          )
          (9): CNBlock(
            (block): Sequential(
              (0): Conv2d(384, 384, kernel_size=(7, 7), stride=(1, 1), padding=(3, 3), groups=384)
              (1): Permute()
              (2): LayerNorm((384,), eps=1e-06, elementwise_affine=True)
              (3): Linear(in_features=384, out_features=1536, bias=True)
              (4): GELU(approximate='none')
              (5): Linear(in_features=1536, out_features=384, bias=True)
              (6): Permute()
            )
            (stochastic_depth): StochasticDepth(p=0.17142857142857143, mode=row)
          )
          (10): CNBlock(
            (block): Sequential(
              (0): Conv2d(384, 384, kernel_size=(7, 7), stride=(1, 1), padding=(3, 3), groups=384)
              (1): Permute()
              (2): LayerNorm((384,), eps=1e-06, elementwise_affine=True)
              (3): Linear(in_features=384, out_features=1536, bias=True)
              (4): GELU(approximate='none')
              (5): Linear(in_features=1536, out_features=384, bias=True)
              (6): Permute()
            )
            (stochastic_depth): StochasticDepth(p=0.18285714285714286, mode=row)
          )
          (11): CNBlock(
            (block): Sequential(
              (0): Conv2d(384, 384, kernel_size=(7, 7), stride=(1, 1), padding=(3, 3), groups=384)
              (1): Permute()
              (2): LayerNorm((384,), eps=1e-06, elementwise_affine=True)
              (3): Linear(in_features=384, out_features=1536, bias=True)
              (4): GELU(approximate='none')
              (5): Linear(in_features=1536, out_features=384, bias=True)
              (6): Permute()
            )
            (stochastic_depth): StochasticDepth(p=0.1942857142857143, mode=row)
          )
          (12): CNBlock(
            (block): Sequential(
              (0): Conv2d(384, 384, kernel_size=(7, 7), stride=(1, 1), padding=(3, 3), groups=384)
              (1): Permute()
              (2): LayerNorm((384,), eps=1e-06, elementwise_affine=True)
              (3): Linear(in_features=384, out_features=1536, bias=True)
              (4): GELU(approximate='none')
              (5): Linear(in_features=1536, out_features=384, bias=True)
              (6): Permute()
            )
            (stochastic_depth): StochasticDepth(p=0.2057142857142857, mode=row)
          )
          (13): CNBlock(
            (block): Sequential(
              (0): Conv2d(384, 384, kernel_size=(7, 7), stride=(1, 1), padding=(3, 3), groups=384)
              (1): Permute()
              (2): LayerNorm((384,), eps=1e-06, elementwise_affine=True)
              (3): Linear(in_features=384, out_features=1536, bias=True)
              (4): GELU(approximate='none')
              (5): Linear(in_features=1536, out_features=384, bias=True)
              (6): Permute()
            )
            (stochastic_depth): StochasticDepth(p=0.21714285714285717, mode=row)
          )
          (14): CNBlock(
            (block): Sequential(
              (0): Conv2d(384, 384, kernel_size=(7, 7), stride=(1, 1), padding=(3, 3), groups=384)
              (1): Permute()
              (2): LayerNorm((384,), eps=1e-06, elementwise_affine=True)
              (3): Linear(in_features=384, out_features=1536, bias=True)
              (4): GELU(approximate='none')
              (5): Linear(in_features=1536, out_features=384, bias=True)
              (6): Permute()
            )
            (stochastic_depth): StochasticDepth(p=0.22857142857142856, mode=row)
          )
          (15): CNBlock(
            (block): Sequential(
              (0): Conv2d(384, 384, kernel_size=(7, 7), stride=(1, 1), padding=(3, 3), groups=384)
              (1): Permute()
              (2): LayerNorm((384,), eps=1e-06, elementwise_affine=True)
              (3): Linear(in_features=384, out_features=1536, bias=True)
              (4): GELU(approximate='none')
              (5): Linear(in_features=1536, out_features=384, bias=True)
              (6): Permute()
            )
            (stochastic_depth): StochasticDepth(p=0.24000000000000002, mode=row)
          )
          (16): CNBlock(
            (block): Sequential(
              (0): Conv2d(384, 384, kernel_size=(7, 7), stride=(1, 1), padding=(3, 3), groups=384)
              (1): Permute()
              (2): LayerNorm((384,), eps=1e-06, elementwise_affine=True)
              (3): Linear(in_features=384, out_features=1536, bias=True)
              (4): GELU(approximate='none')
              (5): Linear(in_features=1536, out_features=384, bias=True)
              (6): Permute()
            )
            (stochastic_depth): StochasticDepth(p=0.25142857142857145, mode=row)
          )
          (17): CNBlock(
            (block): Sequential(
              (0): Conv2d(384, 384, kernel_size=(7, 7), stride=(1, 1), padding=(3, 3), groups=384)
              (1): Permute()
              (2): LayerNorm((384,), eps=1e-06, elementwise_affine=True)
              (3): Linear(in_features=384, out_features=1536, bias=True)
              (4): GELU(approximate='none')
              (5): Linear(in_features=1536, out_features=384, bias=True)
              (6): Permute()
            )
            (stochastic_depth): StochasticDepth(p=0.2628571428571429, mode=row)
          )
          (18): CNBlock(
            (block): Sequential(
              (0): Conv2d(384, 384, kernel_size=(7, 7), stride=(1, 1), padding=(3, 3), groups=384)
              (1): Permute()
              (2): LayerNorm((384,), eps=1e-06, elementwise_affine=True)
              (3): Linear(in_features=384, out_features=1536, bias=True)
              (4): GELU(approximate='none')
              (5): Linear(in_features=1536, out_features=384, bias=True)
              (6): Permute()
            )
            (stochastic_depth): StochasticDepth(p=0.2742857142857143, mode=row)
          )
          (19): CNBlock(
            (block): Sequential(
              (0): Conv2d(384, 384, kernel_size=(7, 7), stride=(1, 1), padding=(3, 3), groups=384)
              (1): Permute()
              (2): LayerNorm((384,), eps=1e-06, elementwise_affine=True)
              (3): Linear(in_features=384, out_features=1536, bias=True)
              (4): GELU(approximate='none')
              (5): Linear(in_features=1536, out_features=384, bias=True)
              (6): Permute()
            )
            (stochastic_depth): StochasticDepth(p=0.2857142857142857, mode=row)
          )
          (20): CNBlock(
            (block): Sequential(
              (0): Conv2d(384, 384, kernel_size=(7, 7), stride=(1, 1), padding=(3, 3), groups=384)
              (1): Permute()
              (2): LayerNorm((384,), eps=1e-06, elementwise_affine=True)
              (3): Linear(in_features=384, out_features=1536, bias=True)
              (4): GELU(approximate='none')
              (5): Linear(in_features=1536, out_features=384, bias=True)
              (6): Permute()
            )
            (stochastic_depth): StochasticDepth(p=0.29714285714285715, mode=row)
          )
          (21): CNBlock(
            (block): Sequential(
              (0): Conv2d(384, 384, kernel_size=(7, 7), stride=(1, 1), padding=(3, 3), groups=384)
              (1): Permute()
              (2): LayerNorm((384,), eps=1e-06, elementwise_affine=True)
              (3): Linear(in_features=384, out_features=1536, bias=True)
              (4): GELU(approximate='none')
              (5): Linear(in_features=1536, out_features=384, bias=True)
              (6): Permute()
            )
            (stochastic_depth): StochasticDepth(p=0.3085714285714286, mode=row)
          )
          (22): CNBlock(
            (block): Sequential(
              (0): Conv2d(384, 384, kernel_size=(7, 7), stride=(1, 1), padding=(3, 3), groups=384)
              (1): Permute()
              (2): LayerNorm((384,), eps=1e-06, elementwise_affine=True)
              (3): Linear(in_features=384, out_features=1536, bias=True)
              (4): GELU(approximate='none')
              (5): Linear(in_features=1536, out_features=384, bias=True)
              (6): Permute()
            )
            (stochastic_depth): StochasticDepth(p=0.32, mode=row)
          )
          (23): CNBlock(
            (block): Sequential(
              (0): Conv2d(384, 384, kernel_size=(7, 7), stride=(1, 1), padding=(3, 3), groups=384)
              (1): Permute()
              (2): LayerNorm((384,), eps=1e-06, elementwise_affine=True)
              (3): Linear(in_features=384, out_features=1536, bias=True)
              (4): GELU(approximate='none')
              (5): Linear(in_features=1536, out_features=384, bias=True)
              (6): Permute()
            )
            (stochastic_depth): StochasticDepth(p=0.33142857142857146, mode=row)
          )
          (24): CNBlock(
            (block): Sequential(
              (0): Conv2d(384, 384, kernel_size=(7, 7), stride=(1, 1), padding=(3, 3), groups=384)
              (1): Permute()
              (2): LayerNorm((384,), eps=1e-06, elementwise_affine=True)
              (3): Linear(in_features=384, out_features=1536, bias=True)
              (4): GELU(approximate='none')
              (5): Linear(in_features=1536, out_features=384, bias=True)
              (6): Permute()
            )
            (stochastic_depth): StochasticDepth(p=0.34285714285714286, mode=row)
          )
          (25): CNBlock(
            (block): Sequential(
              (0): Conv2d(384, 384, kernel_size=(7, 7), stride=(1, 1), padding=(3, 3), groups=384)
              (1): Permute()
              (2): LayerNorm((384,), eps=1e-06, elementwise_affine=True)
              (3): Linear(in_features=384, out_features=1536, bias=True)
              (4): GELU(approximate='none')
              (5): Linear(in_features=1536, out_features=384, bias=True)
              (6): Permute()
            )
            (stochastic_depth): StochasticDepth(p=0.3542857142857143, mode=row)
          )
          (26): CNBlock(
            (block): Sequential(
              (0): Conv2d(384, 384, kernel_size=(7, 7), stride=(1, 1), padding=(3, 3), groups=384)
              (1): Permute()
              (2): LayerNorm((384,), eps=1e-06, elementwise_affine=True)
              (3): Linear(in_features=384, out_features=1536, bias=True)
              (4): GELU(approximate='none')
              (5): Linear(in_features=1536, out_features=384, bias=True)
              (6): Permute()
            )
            (stochastic_depth): StochasticDepth(p=0.3657142857142857, mode=row)
          )
        )
        (6): Sequential(
          (0): LayerNorm2d((384,), eps=1e-06, elementwise_affine=True)
          (1): Conv2d(384, 768, kernel_size=(2, 2), stride=(2, 2))
        )
        (7): Sequential(
          (0): CNBlock(
            (block): Sequential(
              (0): Conv2d(768, 768, kernel_size=(7, 7), stride=(1, 1), padding=(3, 3), groups=768)
              (1): Permute()
              (2): LayerNorm((768,), eps=1e-06, elementwise_affine=True)
              (3): Linear(in_features=768, out_features=3072, bias=True)
              (4): GELU(approximate='none')
              (5): Linear(in_features=3072, out_features=768, bias=True)
              (6): Permute()
            )
            (stochastic_depth): StochasticDepth(p=0.37714285714285717, mode=row)
          )
          (1): CNBlock(
            (block): Sequential(
              (0): Conv2d(768, 768, kernel_size=(7, 7), stride=(1, 1), padding=(3, 3), groups=768)
              (1): Permute()
              (2): LayerNorm((768,), eps=1e-06, elementwise_affine=True)
              (3): Linear(in_features=768, out_features=3072, bias=True)
              (4): GELU(approximate='none')
              (5): Linear(in_features=3072, out_features=768, bias=True)
              (6): Permute()
            )
            (stochastic_depth): StochasticDepth(p=0.3885714285714286, mode=row)
          )
          (2): CNBlock(
            (block): Sequential(
              (0): Conv2d(768, 768, kernel_size=(7, 7), stride=(1, 1), padding=(3, 3), groups=768)
              (1): Permute()
              (2): LayerNorm((768,), eps=1e-06, elementwise_affine=True)
              (3): Linear(in_features=768, out_features=3072, bias=True)
              (4): GELU(approximate='none')
              (5): Linear(in_features=3072, out_features=768, bias=True)
              (6): Permute()
            )
            (stochastic_depth): StochasticDepth(p=0.4, mode=row)
          )
        )
      )
      (avgpool): AdaptiveAvgPool2d(output_size=1)
      (classifier): Sequential(
        (0): LayerNorm2d((768,), eps=1e-06, elementwise_affine=True)
        (1): Flatten(start_dim=1, end_dim=-1)
        (2): Linear(in_features=768, out_features=1000, bias=True)
      )
    )
  )
  (lat_con_loss_fn): DistLoss()
)
I20260317 20:42:13 __main__ train.py:530] G(
  (encoder): Transformer(
    (x_embedder): Sequential(
      (0): Conv2d(3, 512, kernel_size=(2, 2), stride=(2, 2), bias=False)
      (1): Conv2d(512, 512, kernel_size=(1, 1), stride=(1, 1))
      (2): Rearrange('b c h w -> b (h w) c', h=16, w=16)
      (3): Contiguous()
    )
    (y_embedder): LabelEmbedder(
      (embedding_table): Embedding(11, 512)
    )
    (blocks): ModuleList(
      (0-7): 8 x Block(
        (norm1): RMSNorm((512,), eps=1e-06, elementwise_affine=True)
        (norm2): RMSNorm((512,), eps=1e-06, elementwise_affine=True)
        (attn): Attention(
          (qkv): Linear(in_features=512, out_features=1536, bias=True)
          (proj): Linear(in_features=512, out_features=512, bias=True)
        )
        (mlp): SwiGLUFFN(
          (w12): Linear(in_features=512, out_features=2730, bias=True)
          (w3): Linear(in_features=1365, out_features=512, bias=True)
        )
        (adaLN_modulation): Sequential(
          (0): SiLU()
          (1): Linear(in_features=512, out_features=3072, bias=True)
        )
      )
    )
    (ffn): ModulatedLinear(
      (linear): Linear(in_features=512, out_features=8, bias=True)
      (norm): RMSNorm((512,), eps=1e-06, elementwise_affine=True)
      (adaLN_modulation): Sequential(
        (0): SiLU()
        (1): Linear(in_features=512, out_features=1024, bias=True)
      )
    )
    (out): MLPMixer(
      (blocks): ModuleList(
        (0-1): 2 x MixerBlock(
          (norm1): RMSNorm((8,), eps=1e-06, elementwise_affine=True)
          (tok_mixer): TokenMixer(
            (mix): Sequential(
              (0): Linear(in_features=256, out_features=256, bias=True)
              (1): SiLU()
              (2): Linear(in_features=256, out_features=256, bias=True)
            )
          )
          (norm2): RMSNorm((8,), eps=1e-06, elementwise_affine=True)
          (chn_mixer): ChannelMixer(
            (mix): Sequential(
              (0): Linear(in_features=8, out_features=16, bias=True)
              (1): SiLU()
              (2): Linear(in_features=16, out_features=8, bias=True)
            )
          )
        )
      )
      (norm): RMSNorm((8,), eps=1e-06, elementwise_affine=True)
    )
  )
  (decoder): Transformer(
    (x_embedder): Sequential(
      (0): Linear(in_features=8, out_features=512, bias=True)
      (1): MLPMixer(
        (blocks): ModuleList(
          (0-1): 2 x MixerBlock(
            (norm1): RMSNorm((512,), eps=1e-06, elementwise_affine=True)
            (tok_mixer): TokenMixer(
              (mix): Sequential(
                (0): Linear(in_features=256, out_features=256, bias=True)
                (1): SiLU()
                (2): Linear(in_features=256, out_features=256, bias=True)
              )
            )
            (norm2): RMSNorm((512,), eps=1e-06, elementwise_affine=True)
            (chn_mixer): ChannelMixer(
              (mix): Sequential(
                (0): Linear(in_features=512, out_features=1024, bias=True)
                (1): SiLU()
                (2): Linear(in_features=1024, out_features=512, bias=True)
              )
            )
          )
        )
        (norm): RMSNorm((512,), eps=1e-06, elementwise_affine=True)
      )
    )
    (y_embedder): LabelEmbedder(
      (embedding_table): Embedding(11, 512)
    )
    (blocks): ModuleList(
      (0-7): 8 x Block(
        (norm1): RMSNorm((512,), eps=1e-06, elementwise_affine=True)
        (norm2): RMSNorm((512,), eps=1e-06, elementwise_affine=True)
        (attn): Attention(
          (qkv): Linear(in_features=512, out_features=1536, bias=True)
          (proj): Linear(in_features=512, out_features=512, bias=True)
        )
        (mlp): SwiGLUFFN(
          (w12): Linear(in_features=512, out_features=2730, bias=True)
          (w3): Linear(in_features=1365, out_features=512, bias=True)
        )
        (adaLN_modulation): Sequential(
          (0): SiLU()
          (1): Linear(in_features=512, out_features=3072, bias=True)
        )
      )
    )
    (ffn): ModulatedLinear(
      (linear): Linear(in_features=512, out_features=32, bias=True)
      (norm): RMSNorm((512,), eps=1e-06, elementwise_affine=True)
      (adaLN_modulation): Sequential(
        (0): SiLU()
        (1): Linear(in_features=512, out_features=1024, bias=True)
      )
    )
    (out): Sequential(
      (0): Rearrange('b (h w) c -> b c h w', h=16, w=16)
      (1): Contiguous()
      (2): Conv2d(32, 32, kernel_size=(3, 3), stride=(1, 1), padding=(1, 1), padding_mode=reflect)
      (3): SiLU()
      (4): ConvTranspose2d(32, 3, kernel_size=(4, 4), stride=(2, 2), padding=(1, 1))
      (5): Tanh()
    )
  )
)
I20260317 20:42:13 __main__ train.py:587] p.requires_grad: False, param: encoder.pos_embed                                   , torch.Size([1, 256, 512])
I20260317 20:42:13 __main__ train.py:620] p.requires_grad: True , param: encoder.x_embedder.0.weight                         , decay: False, torch.Size([512, 3, 2, 2])    
…
